ppo_robotarm_model_rr.pth (torch, 8132 bytes, 7 tensors)

actor.0.weight f4 [64, 5]
0	0x3f02d690	0.51108646
1	0xbddb4d1f	-0.10708069
2	0xbf647b4b	-0.8925063
3	0xbd32d78c	-0.043662593
4	0x3f3473c5	0.7048915
5	0xbdd3cadc	-0.10341427
6	0xbe1f6520	-0.1556592
7	0xbeb2c421	-0.3491526
8	0xbe31d426	-0.17366084
9	0x3e023840	0.1271677
10	0x3c054bc6	0.008135742
11	0x3ea6bb2a	0.3256467
12	0xbec1e94c	-0.37873304
13	0x3ea68433	0.32522735
14	0x3d8e025c	0.06934044
15	0x3edb004c	0.42773664
16	0x3ed417bd	0.4142436
17	0xbedc79fd	-0.4306182
18	0x3cfbc69f	0.030734358
19	0x3ecae129	0.3962491
20	0x3f057c6c	0.5214298
21	0xbd240bac	-0.040050194
22	0x3e3aa5b9	0.1822728
23	0xbf096f64	-0.53685594
24	0x3e39deab	0.18151347
25	0xbeb877d3	-0.3602892
26	0x3e4712f4	0.19440824
27	0x3e9a96b4	0.30193102
28	0x3dd52ecb	0.10409316
29	0xbefb57b1	-0.4909034
30	0xbd810059	-0.062988944
31	0xbe948b8e	-0.29012722
32	0x3e2fbbe9	0.17161526
33	0xbda5cbec	-0.08095536
34	0x3e687c0d	0.22703572
35	0x3ed0474d	0.40679398
36	0xbe09e15c	-0.13464874
37	0xbd9640bf	-0.07336568
38	0x3d91b9d5	0.07115523
39	0x3e9f785d	0.31146517
40	0x3f14fd62	0.5819913
41	0xbe90c995	-0.28278795
42	0xbe08519b	-0.1331238
43	0xbdeba02d	-0.115051605
44	0x3d9f3682	0.077740684
45	0x3ec19221	0.378068
46	0x3eb9bd80	0.3627739
47	0x3e2f3883	0.17111401
48	0xbeec03d5	-0.46096674
49	0x3e46eefa	0.194271
50	0xbe0489c8	-0.12943184
51	0x3eccbfb2	0.39990002
52	0xbecb5232	-0.39711148
53	0xbdde83c3	-0.10864975
54	0x3ea35762	0.31902605
55	0xbe19a054	-0.15002567
56	0xbe5ee862	-0.21768335
57	0xbbec7cc0	-0.00721702
58	0xbdf3d9a8	-0.11906749
59	0x3d829b58	0.06377286
60	0x3d5205cc	0.05127506
61	0x3dabd1d8	0.08389634
62	0x3d56d82c	0.05245225
63	0x3ecba3ac	0.3977331
64	0xbd325d12	-0.04354579
65	0x3e860ee7	0.26183245
66	0xbed136e3	-0.40862188
67	0xbf1632ad	-0.58671075
68	0x3e294977	0.16531931
69	0xbc9d1c7a	-0.019178618
70	0x3eb5dd0f	0.35520217
71	0xbe688618	-0.22707403
72	0x3effb996	0.49946278
73	0x3ec613db	0.38687024
74	0x3e95f42d	0.29287854
75	0xbef8a695	-0.48564592
76	0x3e183c16	0.14866671
77	0xbeac7e21	-0.3368998
78	0x3ed753a6	0.42056006
79	0x3e069e19	0.13146247
80	0xbddd53da	-0.10807009
81	0x3e759782	0.23983577
82	0xbed648c3	-0.41852388
83	0x3efc13be	0.49233812
84	0xbe98add8	-0.29820132
85	0x3df346c9	0.118787356
86	0xbeb04e58	-0.34434772
87	0xbdb9e9bb	-0.09077784
88	0x3e8c77af	0.2743506
89	0x3f1799ae	0.5921887
90	0xbe4e0740	-0.20119953
91	0xbd25ecf1	-0.040509168
92	0x3ecb2aa7	0.3968098
93	0x3e46b894	0.19406348
94	0x3ea53b1b	0.32271656
95	0x3edb52a8	0.428365
96	0xbe2ef447	-0.17085372
97	0x3e8bb9d8	0.27290225
98	0x3eb65861	0.35614303
99	0x3e434058	0.19067514
100	0x3d5005ae	0.050786667
101	0x3bf2edcf	0.007413603
102	0x3d961a81	0.07329274
103	0x3df36fbe	0.118865475
104	0xbeec33e3	-0.46133336
105	0xbe220cf4	-0.15825254
106	0x3ec8e7e3	0.39239416
107	0x3f1110cb	0.5666625
108	0x3d82a07c	0.06378266
109	0x3cb4c855	0.022068182
110	0xbe51a0f1	-0.2047155
111	0x3e71f4db	0.23628561
112	0xbea10fca	-0.3145736
113	0x3eaff414	0.34365904
114	0xbdd2dcda	-0.1029603
115	0x3dfe8af2	0.124288455
116	0x3eb11fc3	0.34594545
117	0x3f0c8519	0.5489059
118	0xbe0cb06f	-0.13739179
119	0x3af3959b	0.0018584015
120	0x3ecdf5cf	0.402266
121	0x3d3919f8	0.04519078
122	0x3ec8cfba	0.39220983
123	0xbf0b6b72	-0.54460824
124	0xbe80fb8b	-0.25191912
125	0x3d351323	0.044207703
126	0x3e4fffd0	0.20312428
127	0xbf5bb7f7	-0.85827583
128	0x3e0a5b1d	0.1351132
129	0x3c90c2ea	0.017671067
130	0xbf3af8e1	-0.7303601
131	0x3e49398c	0.19650859
132	0xbddce1c1	-0.10785247
133	0xbf3a3651	-0.7273913
134	0xbe955eb0	-0.29173803
135	0xbea5ea92	-0.32405525
136	0xbda653bc	-0.0812144
137	0xbe0c610c	-0.13708895
138	0xbdc80f44	-0.09768537
139	0xbee0deb2	-0.43919903
140	0x3e891678	0.26774955
141	0x3e2ac7f4	0.16677839
142	0x3d801a75	0.06255046
143	0x3ea2dd57	0.31809494
144	0x3edd1370	0.43178892
145	0x3cf50652	0.02991024
146	0xbee8ab29	-0.45443085
147	0x3eab59ed	0.33467045
148	0x3e560fa7	0.20904408
149	0xbe9916a7	-0.29900095
150	0x3cd432c2	0.02590311
151	0x3e8e66f5	0.27812925
152	0x3e53d5b6	0.20686993
153	0xbed31382	-0.4122582
154	0x3e950157	0.29102585
155	0x3d9de7ef	0.077102534
156	0x3d8d184a	0.068893984
157	0x3ee4ff41	0.44725993
158	0xbe5fb96f	-0.21848081
159	0xbde40408	-0.111335814
160	0x3d868609	0.06568534
161	0x3dc34ec7	0.0953651
162	0x3efd70e3	0.49500188
163	0xbf2a8d20	-0.6662159
164	0xbe20f54f	-0.15718578
165	0xbecbb403	-0.39785776
166	0x3e80bc06	0.2514345
167	0x3e0f9f08	0.1402551
168	0xbe1759ae	-0.14780304
169	0x3ee09db9	0.43870333
170	0x3ca887d6	0.020572584
171	0xbeb9e142	-0.3630467
172	0x3d98fc82	0.07470037
173	0x3cd9768b	0.026545784
174	0x3e9ca287	0.3059275
175	0xbe8fbde5	-0.28074566
176	0x3d25a9cf	0.040445145
177	0x3ef43da9	0.47703293
178	0x3eb06d3a	0.34458333
179	0xbea02d06	-0.3128435
180	0xbebb28d2	-0.3655458
181	0xbec79abb	-0.38985237
182	0x3db11c6a	0.08647998
183	0x3e8d74e3	0.2762824
184	0x3f0b9579	0.5452495
185	0xbd1822b5	-0.037142474
186	0xbceedcf4	-0.029158093
187	0x3ef0c555	0.47025552
188	0x3dacbdb8	0.084346235
189	0x3d34adfd	0.04411124
190	0x3e21d3e2	0.15803483
191	0x3e501eb8	0.20324218
192	0xbed00890	-0.40631533
193	0xbe15de5c	-0.14635605
194	0x3f14a6ef	0.5806722
195	0xbc8e8658	-0.017398044
196	0xbebdca96	-0.37068623
197	0x3e9aed62	0.30259234
198	0xbe45c216	-0.19312319
199	0x3dbce80f	0.09223949
200	0xbe681d58	-0.22667444
201	0xbea91a26	-0.33027762
202	0x3e5ea6b9	0.21743287
203	0x3e931b95	0.2873198
204	0xbe907c1c	-0.28219688
205	0xbd1930f9	-0.03740022
206	0x3e0a2b8f	0.13493179
207	0x3eccacd4	0.39975607
208	0xbeb78bc2	-0.35848814
209	0xbe165653	-0.14681368
210	0x3edd7750	0.4325509
211	0xbe743cdd	-0.23851342
212	0xbcc7cd0b	-0.024389764
213	0x3c987546	0.018610608
214	0x3eec2f8c	0.46130025
215	0xbe9129ec	-0.28352296
216	0x3da7b4d2	0.081887856
217	0xbf3f5977	-0.7474589
218	0x3e8b196e	0.2716784
219	0xbc020fed	-0.007938367
220	0x3e13ea8e	0.14444944
221	0xbd53c144	-0.051697984
222	0x3edb7f63	0.42870626
223	0xbde66350	-0.11249411
224	0x3eb5113e	0.35364717
225	0xbd5acb0e	-0.053416304
226	0xbeaf68c1	-0.34259608
227	0xbe3063aa	-0.17225519
228	0x3c4f59d3	0.012655693
229	0x3ecb301f	0.3968515
230	0xbe499e1f	-0.19689225
231	0xbe83d4d1	-0.25748304
232	0x3d47029a	0.048586465
233	0x3dcb3dbe	0.09923886
234	0x3f26975f	0.65074724
235	0x3eea575c	0.45769775
236	0xbe88ec68	-0.26742864
237	0xbe36a438	-0.17836082
238	0x3e95a06c	0.29223955
239	0xbd1780e3	-0.03698815
240	0xbe0ca97f	-0.13736533
241	0x3ebcc844	0.3687154
242	0xbd5b3376	-0.053515874
243	0x3dc6e260	0.09711146
244	0xbdc0a004	-0.094055206
245	0x3e5fe124	0.21863228
246	0x3e4c750e	0.19966528
247	0x3ed28e71	0.411243
248	0x3e26dc8e	0.16295072
249	0xbecaa311	-0.39577535
250	0x3edc8831	0.43072656
251	0x3d43bd77	0.04778811
252	0xbec9a4d7	-0.39383575
253	0x3e8c76d8	0.2743442
254	0x3e938d7f	0.2881889
255	0xbe96e938	-0.29474807

actor.0.bias f4 [64]
0	0x3ebeef50	0.37291956
1	0xbe168db4	-0.14702493
2	0xbe8bd729	-0.27312592
3	0x3e27d937	0.16391455
4	0x3d983d13	0.07433524
5	0x3d1b69f1	0.03794283
6	0x3e7fe3c0	0.24989223
7	0x3eb0c14e	0.3452248
8	0x3ed028d0	0.40656137
9	0xbe3c3ce3	-0.18382601
10	0xbb97a84f	-0.0046282182
11	0xbec61c02	-0.38693243
12	0xbe91fcdc	-0.2851323
13	0x3f0ac1a5	0.5420173
14	0x3e705349	0.23469271
15	0x3e7bf634	0.24605638
16	0x3e06353a	0.13106242
17	0x3e2d2919	0.16910209
18	0xbe9f189b	-0.3107346
19	0x3e4f5557	0.20247398
20	0xbdb99e91	-0.09063447
21	0xbee2871e	-0.4424371
22	0x3dd97959	0.10618848
23	0xbd1fb919	-0.038994882
24	0xbdd88b4b	-0.10573443
25	0x3f2aa544	0.66658425
26	0x3e4d8ecb	0.20074002
27	0x3eca0512	0.39456993
28	0xbc86c854	-0.016452946
29	0x3e198200	0.14990997
30	0x3e9b3f5c	0.30321777
31	0x3e75ff64	0.24023205
32	0x3eb9384a	0.36175758
33	0x3d8bca05	0.068256415
34	0x3e9c861c	0.30571067
35	0xbeee3434	-0.46524203
36	0x3f272614	0.6529248
37	0xbdef2621	-0.116771944
38	0x3ef043aa	0.46926624
39	0x3e8ca572	0.27469975
40	0x3d3bfb3c	0.045893893
41	0xbd8cc57d	-0.068736054
42	0x3f056b27	0.52116627
43	0xbe158942	-0.14603141
44	0xbda1a3bb	-0.07892557
45	0x3eebc54c	0.46048963
46	0xbd97194a	-0.073778704
47	0x3f1ce05b	0.6127984
48	0x3dfe02dc	0.12402889
49	0xbe9a3727	-0.30120203
50	0x3e226e9d	0.15862508
51	0xbe8cdb00	-0.27510834
52	0xbee17832	-0.44037014
53	0x3be71157	0.0070516276
54	0xbe8637f5	-0.26214567
55	0xbed5bb53	-0.4174448
56	0xbe9a12f1	-0.30092576
57	0x3ca7fd05	0.020506391
58	0xbd8ef3a7	-0.06980067
59	0xbd819694	-0.063275486
60	0x3f0fabc7	0.56121486
61	0xbe0c9667	-0.13729249
62	0x3c14937c	0.009068366
63	0x3e107e24	0.14110619

actor.2.weight f4 [5, 64]
0	0x3ddc3406	0.1075211
1	0x3d7bdb30	0.06148833
2	0x3d366959	0.04453406
3	0x3c48570d	0.012227786
4	0x3ed1a325	0.40944782
5	0x3c7d1939	0.015447908
6	0xbdf4ef9c	-0.11959764
7	0x3dd3d4af	0.103433006
8	0x3f4c1faf	0.79735845
9	0xbd8786e2	-0.06617524
10	0x3e8791a4	0.26478302
11	0xbd1de7f4	-0.038551286
12	0xbd7a2028	-0.061065823
13	0x3f31271b	0.69200295
14	0x3de39dbb	0.11114069
15	0xbe887b74	-0.26656687
16	0xbe9083ef	-0.28225657
17	0xbe377d0c	-0.17918795
18	0xba4a34ca	-0.00077135547
19	0x3d19d058	0.037552208
20	0x3e73ed02	0.2382088
21	0x3de4d407	0.111732535
22	0xbdf32d55	-0.11873881
23	0x3db3dc37	0.08782237
24	0xbe478a9b	-0.19486468
25	0xbeb41db4	-0.35178912
26	0x3ec42a9d	0.3831376
27	0x3bfd0260	0.0077212304
28	0xbdfc47d4	-0.12318388
29	0x3e7246fa	0.23659888
30	0xbde80b96	-0.11330335
31	0xbc9be330	-0.01902923
32	0xbeb69d71	-0.35666993
33	0xbd148cf9	-0.036267255
34	0x3dd4b7b5	0.10386602
35	0xbd899be9	-0.067191906
36	0xbe282583	-0.1642056
37	0xbd980562	-0.07422902
38	0x3e6fad99	0.23406066
39	0x3d130625	0.03589453
40	0x3ea4ded0	0.32201242
41	0xbedee630	-0.43534994
42	0xbd8165d2	-0.06318249
43	0xbf051793	-0.51989096
44	0x3d20c0e0	0.03924644
45	0x3fcbd1e4	1.5923429
46	0xbc5a3e15	-0.013320466
47	0x3e7aa141	0.24475576
48	0xbd04331b	-0.0322753
49	0xbbb08384	-0.0053867716
50	0xbe25aa5c	-0.16178268
51	0xbb88a5e0	-0.0041701645
52	0x3e4352a9	0.19074501
53	0x3f94965d	1.1608387
54	0x3f6bd6e9	0.921248
55	0x3c78a3ab	0.01517574
56	0x3d040171	0.032227937
57	0xbd898966	-0.0671566
58	0x3dcae798	0.09907454
59	0x3dbc6b7e	0.0920019
60	0x3d4dd836	0.050255023
61	0x3e54b826	0.20773372
62	0x3d1041f4	0.035219148
63	0xbcf6b780	-0.030116796
64	0x3f35abc3	0.7096521
65	0x3dba7dc8	0.09106022
66	0xbe5f7325	-0.21821268
67	0xbe5114a6	-0.20418033
68	0x3ec53709	0.3851855
69	0x3e0243dc	0.12721199
70	0xbdec21f2	-0.11529912
71	0xbe8ae873	-0.2713047
72	0xbeaf5df4	-0.34251368
73	0xbc308737	-0.010774425
74	0x3e043b20	0.1291318
75	0x3ce036a8	0.027369812
76	0x3d794179	0.060853455
77	0xbe9e1c91	-0.3088117
78	0x3cb94ed4	0.022620596
79	0xbe1a82c5	-0.15088947
80	0xbcab7010	-0.020927459
81	0xbeac3376	-0.33633012
82	0xbda5a232	-0.08087577
83	0xbdee8e56	-0.11648242
84	0x3eb1713c	0.34656703
85	0x3ce36f26	0.02776296
86	0xbe1bf6bd	-0.15230842
87	0x3deb5d9b	0.11492463
88	0x3f02bc86	0.51068914
89	0x3f27e794	0.65587735
90	0xbed0cc35	-0.40780798
91	0xbdf3bc9a	-0.11901207
92	0xbdb0e1da	-0.08636828
93	0x3c315b3f	0.010824977
94	0xbe11ab8d	-0.14225598
95	0x3d006e82	0.03135539
96	0x3e9d7368	0.3075211
97	0x3dc01bea	0.09380324
98	0xbeffd7a4	-0.49969208
99	0x3e30c53f	0.17262743
100	0xbf1b5add	-0.6068552
101	0xbd705dc9	-0.05868319
102	0x3e36cb4b	0.17850988
103	0xbe5645a7	-0.20925008
104	0x3e73366d	0.2375123
105	0x3eb0fa2a	0.3456586
106	0xbe666fdf	-0.22503613
107	0x3f091fd4	0.5356419
108	0xbda2f2be	-0.07956456
109	0x3db25e8b	0.08709439
110	0xbf29ac9d	-0.6627901
111	0x3e801286	0.25014132
112	0xbd058ed9	-0.032606933
113	0x3de7a0d9	0.11309976
114	0xbe8e1bb9	-0.27755526
115	0x3cad3ac8	0.021146193
116	0x3e2097fd	0.15682979
117	0xbfc4aa97	-1.536456
118	0xbf7f2e5e	-0.99680126
119	0x3c991629	0.018687325
120	0xbdddcfef	-0.10830676
121	0xbe6e0d92	-0.23247364
122	0xbe2b09f9	-0.16703023
123	0xbde60890	-0.11232102
124	0x3f0784af	0.52936834
125	0x3e63c631	0.22243573
126	0xbec89712	-0.39177758
127	0xbdc5508a	-0.09634502
128	0xbc46d77e	-0.012136338
129	0x3d812ba4	0.06307152
130	0x3dfccbee	0.12343584
131	0x3ce685f5	0.028140048
132	0xbe3f7754	-0.18697864
133	0x3d98c7eb	0.07460006
134	0xbc2a74a7	-0.010403789
135	0xbdd9307f	-0.10604953
136	0x3db0b2f6	0.08627884
137	0xbda64959	-0.08119459
138	0x3e9d6268	0.3073914
139	0xbd9f4ebe	-0.07778691
140	0x3b9059ff	0.0044052596
141	0xbd636d82	-0.055524357
142	0xbd5b73bb	-0.053577166
143	0x3dafc206	0.08581929
144	0x3e15ad24	0.14616829
145	0x3dac52b7	0.08414214
146	0xbe5dfdc4	-0.21678835
147	0x3d0461b1	0.03231973
148	0x3ec244df	0.3794317
149	0xbe1c4091	-0.15259005
150	0x3dbb13fc	0.09134671
151	0xbe131f24	-0.14367348
152	0xbf389a7e	-0.72110736
153	0x3d51e039	0.051239226
154	0x3eaa345e	0.33243078
155	0x3d73ace4	0.059491053
156	0xbdb625a2	-0.08893897
157	0xbe0aafcc	-0.13543624
158	0x3d0f8244	0.03503634
159	0xbed5f757	-0.41790268
160	0xbf2a9cbf	-0.66645426
161	0xbdb1915b	-0.086703025
162	0x3eb81218	0.35951304
163	0xbd906bc0	-0.07051802
164	0xbd3758e5	-0.04476251
165	0xbe75a887	-0.2399007
166	0xbdb03eff	-0.086057656
167	0x3db9a27c	0.090641946
168	0xbe29a5a7	-0.16567098
169	0xbf8b8d49	-1.0902492
170	0x3d09fcee	0.03368848
171	0xbe1d82fe	-0.15382001
172	0xbe5b23b4	-0.21400338
173	0x3f47ff93	0.7812435
174	0x3e61a42c	0.22035283
175	0x395eb7e4	0.00021240074
176	0x3dc6b5b1	0.09702624
177	0xbd3251f4	-0.043535188
178	0x3e20e76d	0.15713282
179	0x3d986644	0.074413806
180	0x3e71a7eb	0.23599212
181	0xbce52994	-0.027973928
182	0xbde8fd59	-0.11376447
183	0xbe0209b3	-0.12699012
184	0x3c41a6ff	0.0118196
185	0x3d302523	0.043004166
186	0xbd3e4022	-0.04644788
187	0xbdaf2636	-0.0855221
188	0x3d8fab8d	0.070151426
189	0x3e4393c2	0.19099334
190	0x3e3fd067	0.18731843
191	0xbdc23bee	-0.09484087
192	0xbedede4c	-0.43528974
193	0xbda16436	-0.07880442
194	0x3e5ccb81	0.21562006
195	0x3e33262b	0.17495029
196	0xbe909b06	-0.28243273
197	0xbc87a8b7	-0.016559942
198	0xbd863d78	-0.06554693
199	0x3e734c98	0.23759687
200	0x3e18a635	0.14907153
201	0x3d23d3c0	0.039996862
202	0xbea95140	-0.330698
203	0xbd658a10	-0.05603987
204	0x3d83e527	0.06440192
205	0x3fb51414	1.4146752
206	0x3d2ab4ba	0.04167626
207	0x3e398194	0.18115836
208	0x3c8774c0	0.016535163
209	0x3f05f6d4	0.52329755
210	0x3d2ab07a	0.041672207
211	0x3c72fe62	0.014831157
212	0xbe1a9148	-0.15094483
213	0xbcf4e297	-0.029893203
214	0x3c847a43	0.01617158
215	0x3cc3246d	0.02382108
216	0xbf016c1b	-0.5055558
217	0xbf105c00	-0.5639038
218	0x3f081607	0.5315861
219	0x3d5b73ec	0.05357735
220	0xbda54250	-0.08069289
221	0xbd34a1bf	-0.044099566
222	0xbd3e0440	-0.046390772
223	0xbd7b32b4	-0.06132765
224	0xbe43c04c	-0.19116324
225	0xbc2521ce	-0.01007886
226	0x3ec3b5b0	0.38224554
227	0xbe491282	-0.19635966
228	0x3f2282a4	0.6348059
229	0xbd6a4d04	-0.057202354
230	0xbed15681	-0.4088631
231	0x3de616cb	0.11234816
232	0x3d4e3d95	0.050351698
233	0xbe6aa2ce	-0.22913668
234	0x3d58e116	0.052949034
235	0x3e039160	0.12848425
236	0xbcb3d083	-0.021950012
237	0xbe9f716d	-0.31141225
238	0x3f108bef	0.5646352
239	0x3f9c648b	1.2218183
240	0xbda7f24f	-0.082005136
241	0x3d8dfeaf	0.06933343
242	0x3d9805a8	0.07422954
243	0xbc284cc0	-0.010272205
244	0xbe19f912	-0.15036419
245	0x3f86b79b	1.0524782
246	0x3f86f827	1.054448
247	0xbe13b0d3	-0.14422922
248	0x3b241a2d	0.0025040016
249	0x3e91f432	0.2850662
250	0x3d18386d	0.037163187
251	0x3c79f5d0	0.01525636
252	0xbf239d0c	-0.6391151
253	0xbe905113	-0.28186855
254	0x3e8c4b6d	0.27401295
255	0x3dcfddfc	0.10149762

actor.2.bias f4 [5]
0	0xbd81f267	-0.06345063
1	0xbd244ac2	-0.040110357
2	0xbe11cadc	-0.14237541
3	0x3e34e5ed	0.17665835
4	0x3d8a6984	0.06758407

critic.0.weight f4 [64, 5]
0	0x3c683801	0.014173509
1	0x3e1b0126	0.15137157
2	0x3d02c1c5	0.031923074
3	0xbe820c59	-0.25400046
4	0x3e0978ab	0.13424937
5	0xbe0f61a0	-0.14002085
6	0xbe90592b	-0.2819303
7	0xbd843cd0	-0.064569116
8	0xbe4baa82	-0.19889262
9	0xbdaf087c	-0.0854654
10	0x3ea32f69	0.3187211
11	0x3de9a475	0.11408321
12	0x3cc83cb6	0.024443012
13	0xbde32cb3	-0.1109251
14	0xbe0ddac3	-0.13852982
15	0x3e846e45	0.2586538
16	0x3bc6525b	0.006052298
17	0x3dbec78d	0.09315405
18	0xbe27c1d0	-0.16382527
19	0x3ed1f35c	0.4100598
20	0xbe47f337	-0.19526373
21	0x3e61e69e	0.2206063
22	0x3e834f23	0.25646314
23	0x3e88f491	0.2674909
24	0x3ec4d544	0.3844396
25	0xbf06096c	-0.52358127
26	0x3dfa0c66	0.12209396
27	0x3db03f21	0.08605791
28	0x3da08d1e	0.07839416
29	0xbede2637	-0.4338853
30	0x3e68f0b7	0.22748075
31	0xbcfa9aac	-0.030591331
32	0xbeb0276f	-0.34405085
33	0x3ef8ba91	0.4857984
34	0xbe17d81c	-0.14828533
35	0x3cd68e9e	0.026191052
36	0xbea5b160	-0.3236189
37	0x3d1235ac	0.035695717
38	0x3dd6d06a	0.104889706
39	0xbeda0f0a	-0.425896
40	0xbd8e3e72	-0.06945504
41	0xbed7d0e7	-0.42151567
42	0x3e87577c	0.26433933
43	0xbe15e7eb	-0.14639251
44	0xbe77acf2	-0.24187067
45	0x3deb62e7	0.114934735
46	0x3eaf1c60	0.34201336
47	0xbc96be22	-0.01840121
48	0x3e3678d2	0.17819527
49	0xbec15a7e	-0.37764353
50	0xbcd1fb2c	-0.025632463
51	0xbc9b6099	-0.01896696
52	0xbe1c90ec	-0.15289658
53	0xbc50bdae	-0.012740536
54	0x3edf7ca3	0.43649778
55	0x3eb0d03b	0.34533867
56	0xbe1ef18d	-0.15521832
57	0x3e6ae5cb	0.22939222
58	0x3d8112be	0.06302403
59	0x3db45c19	0.08806629
60	0xbe8b63d0	-0.27224588
61	0xbd9cbef0	-0.07653606
62	0xbc8e354f	-0.017359404
63	0x3d26f20b	0.040758174
64	0x3ebc28c9	0.36749867
65	0x3df8d7ce	0.121505365
66	0x3e63a1a3	0.22229628
67	0xbe171315	-0.14753373
68	0x3da5e0a7	0.0809949
69	0x3eb4c7c9	0.35308674
70	0xbe26a3e5	-0.16273458
71	0xbdf14f38	-0.11782688
72	0x3e9124ff	0.28348538
73	0x3e2c6dc4	0.16838747
74	0x3e4a341f	0.19746445
75	0x3e712ab2	0.23551443
76	0xbd133a7d	-0.03594445
77	0xbe294f25	-0.16534097
78	0x3e76b5a3	0.24092726
79	0x3bee7481	0.007277072
80	0x3e587950	0.21140027
81	0xbe376b63	-0.17912059
82	0x3ed35c80	0.4128151
83	0x3c2368c5	0.0099737095
84	0xbe78e5e2	-0.24306443
85	0xbe735ba3	-0.23765425
86	0xbd9e0eb4	-0.07717648
87	0x3d9da4cd	0.07697449
88	0xbe368800	-0.17825317
89	0x3e6270c7	0.22113334
90	0x3e194361	0.1496711
91	0x3e4433bf	0.19160365
92	0xbc858f80	-0.016303778
93	0xbe250f8c	-0.16119212
94	0x3ed02972	0.4065662
95	0xbdf0c8e0	-0.11757064
96	0xbe8886b0	-0.26665258
97	0xbe03e48a	-0.1288015
98	0x3dc51818	0.09623736
99	0xbe52d89d	-0.20590444
100	0xbe7e056c	-0.24806756
101	0x3ef5467c	0.47905338
102	0xbd0a58a0	-0.033775926
103	0xbe61ea98	-0.22062147
104	0x3dd93562	0.10605885
105	0xbe2376fb	-0.15963356
106	0x3d875228	0.06607467
107	0x3ec6ee23	0.3885356
108	0xbed0b2be	-0.4076137
109	0xbe970b44	-0.29500782
110	0xbe2a59cb	-0.16635816
111	0xbe9f74a3	-0.31143674
112	0x3eb7fc0b	0.3593448
113	0xbccc1a96	-0.02491502
114	0xbf015dea	-0.50533926
115	0x3e0bd07d	0.1365375
116	0x3e6dc141	0.23218252
117	0xbe85c090	-0.26123476
118	0x3e23618a	0.15955177
119	0x3e443b5f	0.19163273
120	0xbe7b14fa	-0.2451972
121	0xbdeac090	-0.1146251
122	0x3ea153c0	0.3150921
123	0x3e9e4593	0.30912456
124	0xbbc56b71	-0.006024771
125	0xbe6211e2	-0.22077134
126	0x3e50e28d	0.20398922
127	0x3dbc85ab	0.09205183
128	0xbe92e260	-0.28688335
129	0x3d10fa7e	0.035395138
130	0xbe1174f2	-0.14204767
131	0xbf0b0895	-0.5430997
132	0xbe2f4c00	-0.17118835
133	0x3e01085a	0.12600842
134	0x3c7aeee3	0.015315744
135	0x3e91ffef	0.28515574
136	0x3de0308c	0.109467596
137	0x3e5c50d2	0.21515206
138	0xbed83994	-0.4223143
139	0xbe222309	-0.15833677
140	0x3e8dbf44	0.27684987
141	0xbe8a7be3	-0.27047643
142	0x3dccca68	0.099995434
143	0x3ea15e1f	0.3151712
144	0xbd18b0c5	-0.037277956
145	0xbed57b09	-0.4169543
146	0x3eb53d12	0.35398155
147	0xbc0e97cc	-0.008703183
148	0xbee16f1a	-0.44030076
149	0xbeb3d5c9	-0.35124043
150	0xbebcdbe3	-0.3688651
151	0xbf125560	-0.5716152
152	0xbed32076	-0.41235703
153	0x3e213893	0.15744238
154	0xbdf09c35	-0.11748544
155	0x3ebf6ee8	0.37389302
156	0xbd83f1c1	-0.06442595
157	0x3e86541f	0.26236054
158	0x3d32dbe4	0.043666735
159	0xbe5341f5	-0.2063063
160	0xbe18b82f	-0.1491401
161	0xbe7c06c5	-0.24611957
162	0xbe56adfa	-0.20964804
163	0x3e2334c4	0.15938097
164	0x3eb785c5	0.35844246
165	0x3eb4aad9	0.35286596
166	0xbd6e8043	-0.05822779
167	0x3d81c29a	0.063359454
168	0xbd717029	-0.058944855
169	0x3e04b31e	0.12958953
170	0xbe9231fe	-0.28553766
171	0x3e10ba7b	0.14133637
172	0x3dcee14e	0.10101567
173	0x3e4d5abb	0.20054142
174	0xbd2ff1f7	-0.042955365
175	0x3e0fb371	0.14033295
176	0x3e94e2a1	0.29079154
177	0xbef275f3	-0.47355613
178	0xbdc6a4b9	-0.09699387
179	0xbebfb314	-0.37441313
180	0x3e3917e1	0.18075515
181	0x3eb81682	0.35954672
182	0x3b79ffeb	0.0038146924
183	0x3ecb6021	0.39721778
184	0xbd9b4d98	-0.07583159
185	0x3e89a820	0.26886082
186	0xbe9a83ca	-0.30178672
187	0x3e3d0adc	0.18461174
188	0x3ecda214	0.40162718
189	0xbde2fd96	-0.11083524
190	0x3e3f7b65	0.18699415
191	0x3d91e41c	0.071235865
192	0x3e46afca	0.19402996
193	0xbecb8137	-0.3974702
194	0x3e1af598	0.15132749
195	0x3ea7fa85	0.3280832
196	0x3ea35d65	0.31907192
197	0xbea4865b	-0.32133755
198	0xbed3385f	-0.41253945
199	0x3e0a49d2	0.13504723
200	0x3db4e0e3	0.08831956
201	0x3e00d5d9	0.12581576
202	0x3e963f56	0.29345196
203	0x3e16a529	0.14711441
204	0x3c0a8b42	0.008456053
205	0x3c508d05	0.012728934
206	0xbe58cfd9	-0.21173038
207	0xbd23993c	-0.039941058
208	0x3ea585bd	0.32328597
209	0x3d8b3c45	0.06798605
210	0xbee89796	-0.4542815
211	0xbdc864b3	-0.09784832
212	0xbd3b67df	-0.045753356
213	0x3e752da3	0.2394319
214	0x3d97bb7c	0.07408807
215	0xbe139dbf	-0.14415644
216	0xbed42fa4	-0.41442597
217	0xbdb26033	-0.08709755
218	0x3e1001e6	0.14063224
219	0x3dd601db	0.10449573
220	0xbeb45c08	-0.35226464
221	0xbe17faca	-0.14841762
222	0x3dd40690	0.10352814
223	0x3e950b42	0.29110152
224	0x3ddc92d3	0.10770192
225	0x3e8d5c5a	0.2760952
226	0x3e81f374	0.25381052
227	0xbe86f99c	-0.26362312
228	0x3ec4d9ae	0.38447326
229	0xbee79c70	-0.4523654
230	0x3d3099ee	0.04311555
231	0xbdb444bc	-0.088021725
232	0xbcbf0541	-0.023317935
233	0x3eb93689	0.3617442
234	0xbe78f670	-0.24312758
235	0x3e9753e6	0.29556197
236	0x3dd6c252	0.104862824
237	0xbea60b60	-0.32430553
238	0xbeae3090	-0.34021425
239	0xbc6b14bb	-0.014348204
240	0xbe8ab13b	-0.2708834
241	0x3de66a16	0.11250703
242	0xbece2811	-0.40264943
243	0x3c4f356a	0.012647012
244	0x3ea18172	0.3154407
245	0x3e811e2d	0.25218335
246	0xbec4bfe4	-0.3842765
247	0xbea63908	-0.32465386
248	0xbeecfdac	-0.46287286
249	0xbe8cf76b	-0.27532515
250	0xbecd34b0	-0.4007926
251	0xbe0e2787	-0.13882266
252	0x3ece3dd9	0.4028156
253	0x3ec8db96	0.3923003
254	0x3e355340	0.17707539
255	0x3ead8765	0.3389236

critic.0.bias f4 [64]
0	0xbeb084a9	-0.34476212
1	0xbd102c30	-0.03519839
2	0xbd9cc3fc	-0.076545686
3	0x3e9aff02	0.3027268
4	0xbde2d6b8	-0.110761106
5	0xbea1ed1e	-0.3162622
6	0xbe857a87	-0.26070043
7	0xbe685a09	-0.22690596
8	0xbd959af9	-0.07304949
9	0x3e90c02b	0.28271613
10	0x3efb6218	0.49098277
11	0xbeb6a6ed	-0.3567423
12	0x3f261127	0.6486992
13	0xbeab3431	-0.33438256
14	0xbc094d78	-0.008380286
15	0x3e58484b	0.21121328
16	0x3ea6e01d	0.3259286
17	0x3c67e773	0.014154303
18	0x3da9642d	0.0827106
19	0xbeb35d39	-0.3503206
20	0x3d0f37e4	0.03496541
21	0x3e9cb500	0.30606842
22	0xbe1be494	-0.15223914
23	0x3e97e3f9	0.29666117
24	0xbebff601	-0.37492374
25	0xbe9b6b84	-0.30355465
26	0x3e635f0a	0.22204223
27	0xbd4b4d39	-0.049634192
28	0x3eb462e7	0.35231707
29	0xbe6771b2	-0.22601965
30	0x3e47bea9	0.19506325
31	0xbec299f0	-0.3800807
32	0x3e91c210	0.2846837
33	0xbe1ac62d	-0.1511466
34	0xbce1fcf2	-0.027586434
35	0x3d55774c	0.052115723
36	0x3eac0608	0.3359835
37	0x3e6d0a68	0.23148501
38	0xbe59cf21	-0.2127042
39	0xbe5f424e	-0.21802637
40	0xbddd4f45	-0.10806135
41	0x3ddb60e4	0.1071184
42	0xbea3c153	-0.31983432
43	0x3d680c43	0.05665232
44	0xbe404b21	-0.1877866
45	0xbeb99ea4	-0.36253846
46	0x3dfdba1a	0.12389012
47	0x3ee05f8d	0.438229
48	0xbdea38b5	-0.11436597
49	0x3b3c2b2f	0.0028712263
50	0x3d9f9586	0.07792191
51	0x3ebf07f6	0.3731076
52	0x3eb82a2f	0.35969684
53	0x3f05c29b	0.5225007
54	0xbecdc6ac	-0.40190637
55	0x3e830a0a	0.25593597
56	0xbe97b8bc	-0.2963313
57	0xbda980b1	-0.08276499
58	0xbcf13873	-0.029445862
59	0x3eb1d720	0.3473444
60	0x3e17d579	0.14827527
61	0x3e66fb52	0.22556809
62	0xbec38a6d	-0.38191548
63	0xbeebf81d	-0.46087733

critic.2.weight f4 [1, 64]
0	0x3d645bc1	0.055751566
1	0xbce77620	-0.028254569
2	0x3be8a5ea	0.0070998566
3	0xbd8b0fec	-0.06790146
4	0x3d45ae41	0.048261885
5	0xbb8f4a94	-0.004372904
6	0xbc97a39e	-0.018510636
7	0x3d0c6ba5	0.034282345
8	0x3ad26429	0.0016051579
9	0x3d8adc41	0.06780291
10	0xbe566277	-0.20935999
11	0x3d06cc75	0.03290983
12	0xbe2feb87	-0.1717969
13	0xbd9449b8	-0.07240623
14	0xbc568325	-0.013092791
15	0xbd0756b2	-0.033041663
16	0xbce89167	-0.028389646
17	0x3b96c2c6	0.0046008555
18	0x3d6c95ac	0.057759926
19	0x3d5d1200	0.053972244
20	0xbc8a48fd	-0.016880507
21	0x3c2f232d	0.010689539
22	0xbbc9feb5	-0.0061643966
23	0x3d401b1d	0.046900857
24	0x3d50013f	0.05078244
25	0x3cf52db8	0.029929027
26	0x3bf0d202	0.0073492536
27	0xbcb4e148	-0.022080079
28	0xbdc38ba1	-0.095481165
29	0x3d23cead	0.039992023
30	0x3d404fcb	0.046951097
31	0xbca77eb7	-0.020446165
32	0xb9f6ced8	-0.00047074887
33	0x3ae8b6ce	0.0017754675
34	0xbdf6eaed	-0.12056527
35	0x3b5813fe	0.00329709
36	0x3c9dd074	0.019264437
37	0x3d097a94	0.033564165
38	0x3d07fde7	0.033201125
39	0xbb50d3e3	-0.0031864576
40	0xbd926ba0	-0.07149434
41	0xbd8490d8	-0.06472939
42	0xbb884457	-0.0041585374
43	0xbb8ce1c8	-0.004299376
44	0x3b9ddfe8	0.0048179515
45	0x3c1930e2	0.0093500335
46	0x3c31a625	0.010842835
47	0xbd478786	-0.04871323
48	0x3cae76e5	0.021296928
49	0xbd9297f7	-0.07157891
50	0xbced7529	-0.02898653
51	0x3df337cb	0.11875876
52	0x3d446929	0.04795185
53	0xbdb08951	-0.08619941
54	0x381885f1	3.6364367e-05
55	0xbd9a1022	-0.07522608
56	0xbc2ec952	-0.010668116
57	0x3b95e0e6	0.004573929
58	0xbc0954ad	-0.008382005
59	0xbcd8ad85	-0.026449928
60	0xbd8752ec	-0.06607613
61	0x3cc978c1	0.024593713
62	0xbb48bb05	-0.003062905
63	0x3c2a7fba	0.010406429
