final_project/ppo_robotarm_model_r.pth (torch, 8156 bytes, 7 tensors)

actor.0.weight f4 [64, 5]
00000000: 9f71 283e 4444 3e3e ac6e aabe 6e49 06be
00000010: b729 b63e 23d4 ddbe 0c20 1bbf 0bcd 043e
00000020: 0028 873e 9281 f3bc e5bf b3bd 7f8e 823e
00000030: 0c14 afbd e6e7 e83e aaed 0ebe 2e65 0fbe
00000040: 63de 39bd 0479 d93e 112d 583e 320c 47be
00000050: 4a90 82be 4791 28be 1a1d 703d 6223 64be
00000060: 6421 a0be 2f37 90be 7546 55be d974 c03b
00000070: e453 573d f209 a73e 5c38 7a3e f75d 75be
00000080: 24b4 023e 68da b3be 706c c4be 2b6e 1cbf
00000090: d208 673e 1fb1 06bf 8edb 4e3e d078 d2bd
000000a0: 03d1 7a3e b503 bdbe 47a0 e9be d932 bd3e
000000b0: ac66 2f3e ac20 27bf 278b cb3e 0ea2 ddbe
000000c0: c8cc 98bc 072c 66bd b420 703e 9653 653e
000000d0: eb44 433e 78fd 833e e06c c43e e2c7 603e
000000e0: 342d 083e e166 97be 1487 ecbb 6862 793e
000000f0: 4848 10bf 6a49 193e 4f78 01be 5cad e63d
00000100: c6af 9c3e 5261 d3bd c6e8 ea3d bdfc 1fbe
00000110: 864f e63e b549 9ebe 3855 d83e 3108 f0bd
00000120: 4981 99be dfc1 84be 36a0 e6be ea15 c73e
00000130: 8abb e0be 9a0e 92be f829 7abd ac8e 6abe
00000140: 8286 96be 0b3d ae3e 3783 a93e 9fa7 bbbe
00000150: fe3b 03be 9cad 11be 0110 bdbd fa61 04be
00000160: 8114 173d 6242 a53e 526d cd3e 869f c63e
00000170: e117 bdbc 1bcc 133e 75a8 ca3e a5fe 60be
00000180: 427c 96be d776 813e c428 51be e590 d7bd
00000190: 792c 87be 93d0 5a3e 12f1 c43e e4ee 873e
000001a0: bfe6 a9be 4359 e2be 991f 443e f55e 893d
000001b0: f87a a2be ee26 a83e 4b83 08be 3d03 bb3d
000001c0: ed27 c7be cf75 01be 3090 23be 9830 dd3c
000001d0: b42d 88be 9268 ce3e 09df ccbe c570 b13e
000001e0: 9b52 683e 11fc 79be a1d4 97be dfe3 3c3e
000001f0: c2da d93e 95b8 92be 639c fcbe c749 fa3d
00000200: 7e90 dc3d 6744 6abd b417 7e3e 328b d6be
00000210: d868 613e 942c 23be 7253 d2be 18f8 b7bd
00000220: 5cc7 c7be 22bd aebe 305f a4bd 38ef 48bd
00000230: 15ba d43e 7218 343e 8177 8dbe f369 5bbe
00000240: 86b9 9dbe b393 7c3e 20e4 8bbe 24b9 fa3c
00000250: 979f e4bc 7c98 74be 5a6c 2c3e 4609 3dbe
00000260: dc5f 28be 1e75 a43e 013f b03d 171a d3be
00000270: 1229 a7bd 361b 78be 2bfa c2be d142 5f3e
00000280: e885 00be cc5d 8fbe 5dfb a3be 1891 c9bd
00000290: 0836 9c3e 097c b43d a666 5c3e f19f 06bf
000002a0: cfe2 4e3e 3a6e aabe afbb 09be 3884 c8bc
000002b0: 5af5 00bd 5dd4 873e 59bf 8cbe 56f9 273e
000002c0: 663c 76be ec00 933e b862 9bbe 7003 5ebd
000002d0: 28f2 8d3d 277a 853d 7f87 7abe f1ea 72bd
000002e0: 634f 86be f8ac 103e 6032 823e a1e0 9abe
000002f0: 638a 483e 9473 233e 4330 a3bb 6a5a 633d
00000300: 101c e13e cbc8 733e c7c1 a4be 2a6c 7abe
00000310: f742 0e3e 7b9d 96be a46e d6be 8ba9 283e
00000320: 8f7b f63e 0731 03be 91f4 7e3d f952 04be
00000330: 96d9 1f3e ec88 973e eff7 a73d 3fa8 3cbd
00000340: 6771 52be 9a8a ebbc be12 adbe 86e0 473e
00000350: bcee 973e 8476 793e 7b81 08be 3249 87bd
00000360: aa6b cc3d 53da 7d3e 5033 f0be 696f 493e
00000370: 25aa 823e 3f09 cdbd dd6d 353e 65e4 4a3e
00000380: 1a18 d73d d088 413e 971b 553e 31ee 00bf
00000390: 6a47 f4bd 6d05 cdbe 477a d1be 09e6 5ebe
000003a0: 9902 17be bbdf a53e 7613 3fbe 4d8d 98bb
000003b0: a989 c23e 3b66 553e 268c ddbe e250 45be
000003c0: 412c c63e 88bb e4be 83fe 8cbe 1c9c 813d
000003d0: 632b c8be eb70 a23e 4464 80be f5cf 5bbe
000003e0: c875 0bbf 1c98 8f3e 4e7f 2bbe 0f31 24be
000003f0: c6db cb3e 1256 4fbd 7214 223e f877 45bd
0.16449593 0.18580729 -0.3328756 -0.13113949 0.355787 -0.4332591 -0.60595775 0.12968843
0.26397705 -0.02972487 -0.08776835 0.2549934 -0.085487455 0.45489424 -0.13957849 -0.1400344
-0.0453781 0.4247514 0.21110941 -0.19438246 -0.2550071 -0.16461669 0.058621503 -0.22279122
-0.31275475 -0.28167102 -0.20827658 0.0058733043 0.05257024 0.32624775 0.24435562 -0.23961626
0.1276403 -0.35127568 -0.3836398 -0.611056 0.22561958 -0.52614015 0.20200941 -0.102769494
0.24493794 -0.3691689 -0.45630094 0.36952856 0.1712901 -0.6528423 0.39754602 -0.432877
-0.018652335 -0.05619433 0.23449975 0.22395167 0.19069259 0.2577932 0.38364315 0.21951249
0.13298494 -0.29570678 -0.007218251 0.24353945 -0.5636029 0.14969411 -0.1264355 0.112635344
0.30602854 -0.10321297 0.11470179 -0.15623756 0.44982547 -0.3091561 0.42252517 -0.117203124
-0.2998145 -0.25929162 -0.45044106 0.38883907 -0.4389308 -0.28526765 -0.06107518 -0.22905988
-0.29399496 0.34030947 0.3310792 -0.36651322 -0.12815854 -0.14226383 -0.09231568 -0.12928
0.03688479 0.3227721 0.40122467 0.38793582 -0.023082675 0.14433329 0.39581648 -0.21972139
-0.29391676 0.2528598 -0.20425707 -0.10525683 -0.26401117 0.21368627 0.38465172 0.26549447
-0.33183858 -0.44208726 0.19152679 0.06707565 -0.31734443 0.328422 -0.13331334 0.09131477
-0.38897648 -0.12642597 -0.15972972 0.02700071 -0.2659737 0.40314156 -0.40013912 0.3465635
0.22687761 -0.24412562 -0.2965441 0.18446301 0.4254971 -0.2865645 -0.49338064 0.12221103
0.10769747 -0.05719414 0.2481373 -0.41903073 0.22012651 -0.15934974 -0.4107929 -0.08982867
-0.39019287 -0.34128672 -0.08025968 -0.04905626 0.4154822 0.1758745 -0.27630237 -0.21427135
-0.30805606 0.24665718 -0.27322483 0.03060586 -0.02790813 -0.23886293 0.16838208 -0.18460569
-0.16442817 0.32120603 0.08605767 -0.41230842 -0.081621304 -0.2422913 -0.38081488 0.21802832
-0.12551081 -0.2800125 -0.32027712 -0.098421276 0.30509973 0.0881272 0.21523532 -0.525878
0.20203708 -0.3328722 -0.13450502 -0.02447711 -0.031483985 0.26529208 -0.27489737 0.16403708
-0.24046478 0.2871164 -0.30348754 -0.054202497 0.06930953 0.06517439 -0.2446575 -0.05930609
-0.26232442 0.14128482 0.25429058 -0.30249503 0.1958404 0.15962058 -0.0049801185 0.055506147
0.43966722 0.23807065 -0.3217909 -0.24455324 0.13892733 -0.29417023 -0.41881287 0.16470926
0.48141143 -0.12811671 0.062244955 -0.12922277 0.15610346 0.2959665 0.082015865 -0.04605889
-0.20551072 -0.028752614 -0.33803362 0.19519243 0.29674327 0.24361616 -0.13330643 -0.06605758
0.09981473 0.24790315 -0.46914148 0.19671406 0.25520435 -0.10011529 0.17717691 0.19813688
0.10502644 0.18899846 0.20811306 -0.5036345 -0.11927684 -0.40043202 -0.40913603 -0.21767439
-0.14747085 0.32397255 -0.18659768 -0.0046555162 0.3799565 0.20839779 -0.43270987 -0.19269136
0.38705638 -0.44674325 -0.27537927 0.063286036 -0.390956 0.31726775 -0.25076497 -0.21466048
-0.54476595 0.28045738 -0.16747782 -0.1603434 0.3981611 -0.050619192 0.15828112 -0.048210114

actor.0.bias f4 [64]
00000000: 35e2 44be 378a 7fbe 8061 913e bad3 c7be
00000010: 5f78 db3d a82d e83e d63b 5ebe 241a 9f3d
00000020: dbdb 56be 0898 9ebe 0b4d 81be be80 2cbe
00000030: f7eb 02bf 7950 edbd b19c bb3e 9bc9 dd3d
00000040: 7d04 533e ebd7 413e e788 3dbe 2991 ac3e
00000050: 3248 b4be 49df 363e a9ed 24be eded 243d
00000060: 8e9a ca3c 9b14 813d a95d 053e 9897 1b3d
00000070: 26a4 c2be 5910 af3b 3f6a ba3e 1413 38be
00000080: 1611 c9be 0f1e a6bd dfc9 7fbe 3559 babd
00000090: ffd5 dcbe 3797 713e e4aa 4dbe 82f5 923e
000000a0: 4b19 cdbe a4bc abbd f178 c3bd 0927 cbbe
000000b0: cfe9 0e3e 83ec cf3c 1369 9e3e 78ea fabd
000000c0: b171 d7bd 1783 ef3d 04d5 97be 6fee b7be
000000d0: 1154 a1bd 20f6 2abe 1b65 c53e 1f8f b33e
000000e0: 9421 43bc 3d8b 9fbb 7a28 dcbe 0a4a 953e
000000f0: 851d 8cbe 02d3 71be f5dc df3e 5e11 d0be
-0.19226916 -0.24955069 0.283947 -0.39028722 0.10716318 0.45347333 -0.21702513 0.07768658
-0.20982306 -0.30975366 -0.25254092 -0.16845986 -0.51141304 -0.115876146 0.36642984 0.10829469
0.20607181 0.18930022 -0.18509255 0.33704498 -0.3521133 0.17858614 -0.16106285 0.040265966
0.0247319 0.06302758 0.1302401 0.037986368 -0.3801586 0.005342525 0.36409184 -0.17976028
-0.39270848 -0.08111202 -0.24979351 -0.09099046 -0.43132016 0.2359284 -0.20084721 0.28702933
-0.4005836 -0.0838559 -0.09544552 -0.3967822 0.13956378 0.025381332 0.3093954 -0.122517526
-0.10519732 0.11694925 -0.29654706 -0.35924098 -0.078773625 -0.16695452 0.385537 0.3507013
-0.011909861 -0.0048688934 -0.4299963 0.2915805 -0.27366272 -0.2361565 0.43723264 -0.4063825

actor.2.weight f4 [5, 64]
00000000: 1ed5 c83d f9d8 123e 5476 813d f7e7 69bd
00000010: e687 8d3d c3eb 08be 13cd 003e 83f7 10bd
00000020: 3654 3b3e 5e34 e6bd e3ad ea3d 9e30 d83d
00000030: 6066 af3d 46da 2cbc a515 2dbe 91a7 c8bd
00000040: 9d36 35bd 7be4 b33e 0dfc d7bd a34c 45bb
00000050: 7705 b339 bdec 8bbd 0d30 1dbe 7d36 0dbd
00000060: 2716 be3d b720 4d3e d410 d43d a89b 4cbd
00000070: 6cf0 f0bd e625 b9bd 92a5 03bc b9ec e53d
00000080: 72d1 f0bd 5e45 883a 28b5 57bc 1005 6a3e
00000090: 2fd4 cdbc b4f2 e7bd cc74 903d bc64 c1bd
000000a0: 4d65 c73d 2ad1 873d ebe6 7e3d 1204 193e
000000b0: 0337 c73c a0b6 58bd 22a5 0ebe a423 373d
000000c0: 1a6e 55bd e61c 2b3d b8e2 ec3d e8f6 123d
000000d0: ddca f7bc 5949 1bbd 040b d03d 40e4 abbd
000000e0: db76 303e 556a 59bd 7848 583c 417d 573e
000000f0: 7554 4d3e 7231 89be 31ae 8f3c c26d eebc
00000100: babd 173e a9ed 87be b5ce 183d 43dc 9bbd
00000110: e2e2 523d 5610 5b3e 4bc4 23be 1f7a 913c
00000120: cab6 493d 17fd 2fbe 1f50 4b3d 5017 f2bc
00000130: e798 13be a268 4abd 632b 42bc b2be 52bd
00000140: e079 d4bd 9513 70be b04d b2bd 9bbf b73d
00000150: a87b e9bd 7916 a4bc b2c6 24bd 8329 ccbd
00000160: ce9d 0d3e a88f b5be 0659 173d c406 94bd
00000170: 4ec0 0dbe ef1a 293c 1072 973d d824 dabd
00000180: e7af 98bd 08cf 15be 7ef7 133e a6db 1abe
00000190: a0ab 1f3d 2092 a43d f909 803d e305 c8bd
000001a0: ca86 2abd 2f0c 8b3d 1b81 873d c3d5 8fbe
000001b0: 436c 7dbd 525d 4e3e ceaa 353e 6e54 953c
000001c0: 077f 053d b87e 3dbd 1a5f 873b 2e11 b33d
000001d0: bf9b 003e 993e 5dbd 805e 03be 600f 9a3d
000001e0: 14d7 29be daad 00bd 0783 a33c 6030 d1be
000001f0: 8be8 99be 23b1 153e 7e7b e0bd 4cf8 9bbd
00000200: e189 91bc b63f 853e 92b5 d3bc a61a 15bd
00000210: 9385 cb3b 58f3 4bbd 3a2c f83d 0f6d dfbc
00000220: f930 af3d 4d1b da3d 0c5f 0c3d c78e b2bd
00000230: 015f 1abd 9b60 b8bd 5434 b0bc e87b dd3c
00000240: b20c b2bd b148 8ebe b636 0fbc 88fd 233e
00000250: 8419 943d 50b2 ff3c 9526 423d 3882 43bd
00000260: a505 91bd ea70 4a3e 79d8 7bbd f419 5c3d
00000270: 1b62 e63d 5d52 2abd b9d6 88bd 1e0f 083c
00000280: 5f52 60bd ceb9 ccbd 6f2e 37bd 8db3 403d
00000290: f243 02bd 84ac f8bd 9455 843d 437d 803d
000002a0: 7af1 4ebd 05af 02bd 24a5 abbd 95f7 a73d
000002b0: 56e5 a03d 3f46 e6bd 1f75 54be 0df8 9b3d
000002c0: 845e e9bd 73dc 633e 5c7a d23c c010 bfbd
000002d0: 08b1 cfbd 23d4 2fbc a02a b83d b14d d8bd
000002e0: f92e 4dbe 542b 48bd 8ccf 353c dcd1 863e
000002f0: 84db 463e 3f41 26be 16b5 b0bd d151 893d
00000300: b037 e03d 8780 bb3d 17f2 863d f5dc 9d3d
00000310: 35c6 80bd d01f 61bd 5020 2abd fcae 3d3e
00000320: e7cb 24be 0345 4b3d 52a8 c8bd a9f6 243c
00000330: 24b5 a73d f5d2 a6bd cde9 413e 070a 103d
00000340: 7065 d93c 8b39 f33d 55c7 8fbd 71e5 943d
00000350: 7130 35bc 7ba0 12bc 4907 9b3d e5ac ea3c
00000360: 6a20 59bc d537 983e 5817 bc3d 002f e5bb
00000370: 64d1 ffba 0189 4fbd 179b a6bd 6f53 63bc
00000380: 73d6 ff3d 1aeb 28bd 8ec8 03bd 901e c3bd
00000390: 27ed 7cbd 3aae 8d3d 77db b03d 0304 6d3d
000003a0: 06cb 203d cf84 5e3c 0f6c 88bd 3be5 7c3e
000003b0: dff9 c0bc 36c5 5dbd 72fe eebc a79b abbd
000003c0: 2472 133e 2554 28bc fc16 353d a81c b7bc
000003d0: ea73 e6bd ad26 1fbc b749 0d3d 19c6 f33c
000003e0: 25b3 e93d b5a9 23bd d16d e43c 4b4b 5e3e
000003f0: 3826 4e3e e539 f73d b60b 3d3d 3752 083e
0.09806274 0.14340581 0.063213974 -0.057105985 0.06910686 -0.13371186 0.1257823 -0.035392296
0.18293843 -0.11240457 0.114589475 0.10556148 0.08564448 -0.010550087 -0.16902788 -0.09797586
-0.044241536 0.35135254 -0.10546122 -0.0030105493 0.00034145612 -0.068322636 -0.15350361 -0.034475792
0.09281569 0.20032011 0.10354772 -0.049953133 -0.11764607 -0.09040432 -0.0080350805 0.11226792
-0.117586985 0.001039665 -0.01316575 0.22853494 -0.025125591 -0.11325589 0.07053527 -0.09443042
0.097361185 0.06631692 0.06223194 0.14942959 0.024318224 -0.05290854 -0.1393018 0.044711724
-0.052106954 0.041775607 0.11566681 0.03588 -0.0302481 -0.037911747 0.10158351 -0.083931446
0.1723284 -0.05307992 0.013200872 0.21043874 0.20051749 -0.26795536 0.017539116 -0.029105071
0.14818469 -0.26548508 0.037306506 -0.07610371 0.051485904 0.2139295 -0.15992849 0.017758427
0.049246587 -0.1718639 0.049636956 -0.029552132 -0.14413796 -0.049416192 -0.0118511645 -0.051451392
-0.10374808 -0.2344497 -0.08706224 0.08972093 -0.11400539 -0.020030247 -0.040228553 -0.09968855
0.13829729 -0.35461164 0.036950134 -0.07227853 -0.1384289 0.010321363 0.073948026 -0.10651559
-0.07455426 -0.14629757 0.1444988 -0.15122852 0.038982034 0.08035684 0.06251902 -0.09766748
-0.04163245 0.06789433 0.06616422 -0.28092775 -0.061870825 0.20152786 0.17740938 0.018228736
0.032591846 -0.046263427 0.00413121 0.08743511 0.12559412 -0.054014776 -0.12829018 0.07522464
-0.16585952 -0.031415798 0.01995994 -0.4085722 -0.3006023 0.14618354 -0.10961054 -0.07615718
-0.017765941 0.2602517 -0.025843415 -0.036402367 0.0062109916 -0.049792618 0.121178105 -0.027273683
0.08554263 0.106497385 0.03427033 -0.08718639 -0.03768826 -0.09002801 -0.021509327 0.027036622
-0.08693828 -0.27789834 -0.008741071 0.16014683 0.07231429 0.031212956 0.047400076 -0.04773161
-0.07081155 0.19769636 -0.06148574 0.05373569 0.11249181 -0.041582454 -0.0668158 0.0083043855
-0.054766055 -0.09996377 -0.044722017 0.047046233 -0.03180308 -0.1214228 0.06461635 0.06273892
-0.05052326 -0.031905193 -0.083811074 0.082015194 0.07856242 -0.11243867 -0.20747803 0.07615671
-0.113949805 0.22252063 0.025693111 -0.09329367 -0.10141188 -0.01073173 0.08992505 -0.105616935
-0.2003745 -0.048869446 0.011096846 0.26331985 0.19419676 -0.16235827 -0.086282894 0.06705058
0.109481215 0.09155374 0.06589144 0.0770816 -0.06287805 -0.05496198 -0.04153472 0.18523782
-0.16093408 0.04962636 -0.097977296 0.010068574 0.08188847 -0.081457056 0.18936844 0.035165813
0.026537627 0.1187621 -0.070204414 0.07270325 -0.011058913 -0.008949394 0.07569749 0.028646896
-0.013252357 0.29730096 0.0918414 -0.006994128 -0.0019517359 -0.050667766 -0.0813505 -0.013874873
0.12492075 -0.041239835 -0.032173686 -0.09527314 -0.061749604 0.06917997 0.086356096 0.057865154
0.03925612 0.013581469 -0.066612355 0.2469682 -0.023556648 -0.054143153 -0.029174063 -0.08379298
0.1439901 -0.010273968 0.044211373 -0.022352532 -0.112525776 -0.009713811 0.034494128 0.029757546
0.11411122 -0.039956767 0.027884396 0.2170841 0.20131767 0.120715894 0.046153747 0.13312612

actor.2.bias f4 [5]
00000000: f291 fdbc b30f 47bd 4acf 93bd b774 10be
00000010: 59fd 99bd
-0.030953381 -0.048598956 -0.072172716 -0.14107023 -0.07519025

critic.0.weight f4 [64, 5]
00000000: 1499 68be ebe3 c6be 00ac f5bc 0689 b5be
00000010: 133a cabe 102d cfbe 6d06 dbbe 81d4 7a3e
00000020: 363e 863e 947a 9a3e 300e bf3c 4033 953d
00000030: 0498 82bd 6847 c2be 78a2 d0be aafa 293e
00000040: 3756 343c ec2b 5dbe 71df 4cbe 0036 d0be
00000050: d501 a5bd dbff 59be d9d4 8f3e c3d4 c53e
00000060: f702 9bbd 5a84 ce3c 51e6 4b3e f43d 13be
00000070: 5e8f d2be 09f9 a33e 6695 75be 34e8 ebbd
00000080: 95f6 afbe d069 693d 6a1f a0be 89fa c73e
00000090: cb6e f6bd 5f15 983d cf1a 0bbe 2bb5 a4bd
000000a0: 6951 9b3e f58a 4cbd 9ff1 3cbe 3635 a5be
000000b0: 20fa b83e bb95 15be 9f06 08be 2b6e b03e
000000c0: d6f4 c63c b685 8fbe 0fad a5be d2fd a8bd
000000d0: 3cca b23d 9142 44be fbde 1abe 8763 f83d
000000e0: dad4 c83e b4e7 42be de30 7e3e 0dfc 0b3e
000000f0: 2ea1 adbe cff9 8bbe 71a7 913e e694 8b3e
00000100: 2b90 a53e eea0 7c3e 3adc cf3e 9abf bc3e
00000110: 5a3b 9f3e 0233 863d c0bc 763e 1e6b e5bb
00000120: 9ce0 9dbe c9cf 06be bf2d aabe 34df b2bd
00000130: e7f7 d4be dafa e1be 524e 433e af94 ce3b
00000140: 35e7 933d b045 b63e 18d2 8cbd 6635 54be
00000150: ec95 e8be 1029 ec3d 4d63 653d fdd7 1b3e
00000160: d623 0b3e 6cb8 7ebe c50e 8a3e 0d35 b7bd
00000170: b3f8 e5be b00c 963d bc88 17be 642a 9c3e
00000180: e407 a9be c6ae ad3e a8b1 0c3e 7c77 a93e
00000190: db3b 93be 543a 343e 01d4 5d3d 6e33 e5bd
000001a0: 1219 6e3b a7cd 3b3e ea5c b7be 0b06 5c3e
000001b0: b466 09be 6777 cbbe e9e0 823e fab0 c73d
000001c0: 5d28 b73e e092 26bd 2d5b 4abe 6c67 d03e
000001d0: d28d c8be 4110 60bd 8592 c03e abe3 a5be
000001e0: b47b 94bd 9268 b03e bd98 b83e 6153 2b3c
000001f0: b530 be3e a7f1 aab9 75b9 a0be 735a e83e
00000200: 3758 80be e9a1 a73e d609 e13d 7092 39be
00000210: 98f1 0a3e a7ed 053d cc34 053f 73d2 88bd
00000220: f1e8 9c3e 706e 8e3e eb0a abbe 4c83 0fbf
00000230: 075f 6c3e 6370 0d3e 3d26 a3be d5df 133e
00000240: 3911 023f 7a5f 5ebd 8b9a 2fbd d3d7 88bd
00000250: 20a7 7cbe d85a 0c3e 061b bc3e 9819 913e
00000260: b342 7cbe a0b8 c73e 1e3e 87be e814 bebe
00000270: 0f92 793d c5cd 673e c140 ca3e a3b1 9abe
00000280: b81a 6abe b7dc 8dbe 1252 373d 6f1e dcbe
00000290: 3ff9 acbd 80cc 683e f840 54be ddcf 7d3e
000002a0: 5847 57be 1619 0cbe fb7d 963d a23f adbe
000002b0: e253 9dbe 2e7b bd3e 7b32 db3e a701 753e
000002c0: 1e49 d43e 362f 59be 421f 4a3e 5ef4 873e
000002d0: dbf6 a13e 08fc 55be 6c9b 54be 346a 83be
000002e0: 28ad 06be 9dc5 b9be 8fb7 0dbf ef17 5e3c
000002f0: c032 56be b01a b53e 066e 7e3e f117 88be
00000300: 26c2 22be 005b 18be 2d61 dbbe 31ba b0ba
00000310: 2308 383e 7a9f 85be b12f 103e 4362 36bd
00000320: 42fe 9b3e 221d a9ba 7285 95be 3de6 94bc
00000330: 7e4e 43be d192 d5bd 046f 88be 2821 b13e
00000340: 6b18 ef3e bdc8 103e b57c 8c3e 53b4 1a3e
00000350: 34dd 103d 0d2d 14bd 2808 193d f062 b0be
00000360: 225b b0bd 8488 a0be bbcb 46be d09a d53e
00000370: 6c26 593e 8132 e4bd 5720 7d3e a7d0 21be
00000380: df63 9b3e 941c df3e 40e2 d1be 8daa 4dbd
00000390: 1a76 cd3e 378d a8be 713a b3bd 96f9 92be
000003a0: 1b04 fb3d b113 7e3c e9ea f13d aa03 8dbe
000003b0: 0f3a 8cbe 2936 abbd dc9b 82bd ab27 7c3e
000003c0: 1322 a1be 82bd 983e 7def b1be 3201 9c3e
000003d0: 30bd be3e 6ab3 5b3e 6311 11bd ab41 83be
000003e0: 1b5b ce3e 796e 9c3d db61 c63e 711f a6ba
000003f0: 1bac bcbe 697c b9bc 9693 8abe cf25 95be
-0.22714645 -0.38845763 -0.029989243 -0.35456103 -0.39497432 -0.40464067 -0.4277834 0.24495126
0.26219338 0.30171645 0.023322195 0.07285166 -0.06376651 -0.37945104 -0.40748954 0.16599527
0.011006883 -0.21598786 -0.20007111 -0.406662 -0.0805699 -0.21289007 0.28092077 0.38638887
-0.07568925 0.025209595 0.19912077 -0.14379102 -0.41125005 0.32025936 -0.23982772 -0.115188986
-0.34367815 0.056985676 -0.31273967 0.3905833 -0.12032851 0.07425951 -0.13584445 -0.080423675
0.3033555 -0.049937207 -0.18451546 -0.3226716 0.3612833 -0.14607899 -0.13283776 0.3445905
0.024286669 -0.280317 -0.32358596 -0.082515374 0.087299794 -0.19166018 -0.15124123 0.12128358
0.39224893 -0.190337 0.24823329 0.13670368 -0.33912033 -0.27339026 0.2844806 0.27262038
0.32336554 0.24670765 0.40597707 0.3686493 0.3109997 0.06552698 0.2409544 -0.0070012948
-0.30835426 -0.13165201 -0.33238026 -0.08733979 -0.41595384 -0.44136697 0.19072846 0.0063043456
0.072218336 0.35600042 -0.0687601 -0.20723495 -0.4542688 0.115312696 0.056002904 0.15219112
0.13587889 -0.24875039 0.26964393 -0.089456655 -0.44916305 0.07326639 -0.14798254 0.3050109
-0.33013833 0.33922404 0.13739645 0.33098972 -0.28756604 0.17600375 0.05415726 -0.1119145
0.003633086 0.18340169 -0.35813075 0.2148668 -0.13418084 -0.39739534 0.25562218 0.097505525
0.35772982 -0.040667415 -0.19761343 0.40703905 -0.391707 -0.054703 0.37611786 -0.3240026
-0.07250157 0.3445478 0.3605403 0.010456891 0.37146536 -0.00032604972 -0.31391492 0.45381507
-0.25067303 0.32740715 0.10988204 -0.18122268 0.13568723 0.032697346 0.52033687 -0.06680765
0.3064647 0.27818632 -0.33406767 -0.5605972 0.23083125 0.13812403 -0.3186511 0.14440854
0.5080753 -0.054290272 -0.042871993 -0.0668179 -0.24673128 0.13706529 0.36739367 0.2833984
-0.24634819 0.39008045 -0.2641458 -0.37125325 0.060930308 0.22637089 0.39502528 -0.3021365
-0.22861755 -0.27707455 0.044756003 -0.4299197 -0.084459774 0.2273426 -0.20727909 0.24786325
-0.21023309 -0.13681445 0.073482476 -0.3383761 -0.3072806 0.3700804 0.4281195 0.23926412
0.41462034 -0.21209416 0.19738486 0.26553625 0.31633648 -0.20896924 -0.20762414 -0.25666964
-0.13151991 -0.3628358 -0.55358213 0.013555511 -0.20917797 0.35371923 0.24846658 -0.26580766
-0.15894374 -0.14878464 -0.42847577 -0.0013483224 0.17971854 -0.26098233 0.14080693 -0.044527303
0.3046742 -0.0012902359 -0.29203373 -0.018176192 -0.19072911 -0.10428394 -0.26647198 0.3459561
0.46698317 0.14139076 0.27438894 0.1510785 0.035367206 -0.036175776 0.037361294 -0.34450483
-0.08611132 -0.31354153 -0.19413655 0.41719675 0.21206063 -0.11142445 0.24719368 -0.15802251
0.30349633 0.4357649 -0.40992928 -0.050211478 0.40129167 -0.32920238 -0.08751381 -0.28706044
0.122566424 0.0155076245 0.11812384 -0.27541858 -0.27388045 -0.083599396 -0.06377384 0.24624507
-0.3147131 0.29832083 -0.34753028 0.30469662 0.37253714 0.2145516 -0.035416972 -0.25636038
0.40303883 0.076382585 0.38746533 -0.0012674165 -0.36850056 -0.022642331 -0.27065724 -0.29130408

critic.0.bias f4 [64]
00000000: 90a4 1a3d 9848 05be 6020 16bd d9e2 b93e
00000010: 92f4 fd3c 7fe7 343e d8b1 ed3d bbe0 a5be
00000020: 1ecc bfbe dd8c 64be cf1b e33e 3b88 e1bd
00000030: 7243 0fbe 281b 45bd b745 b53b 01ad b1bc
00000040: df70 90be e15a a13e af01 6cbd fb0e adbc
00000050: e1ec d93d 21d9 863e 8d85 5f3e a2d8 3e3e
00000060: dbc8 c73e a2d8 d23e 54fc 74be 26b4 b2bd
00000070: b80d be3e a5c3 853e badd e63e bc76 723e
00000080: 4261 bebd 0b28 62be 99f9 c93e 98a4 643d
00000090: 6075 503d 3a07 653e 3984 b03d d50c e2be
000000a0: 5f63 533e 0d37 90be 000a 7ebd 8bbb 17be
000000b0: cab0 c63e 8fcc e13d fd2c bcbd c8ae 243e
000000c0: dc2c 32bd 7c37 febe b183 933e 891a 4abd
000000d0: a3b3 813e 207d 30be bc42 ba3d 73d3 3cbe
000000e0: 6383 113d 6388 cfbe 6ab7 bdbe e496 ed3d
000000f0: c59c b03d d10b 14be a36b 903e 809e 133d
0.037754595 -0.13015974 -0.03665197 0.36305884 0.03100041 0.17666434 0.11606187 -0.32398018
-0.37460417 -0.2231936 0.44357154 -0.11012312 -0.13990572 -0.0481216 0.0055319923 -0.02168894
-0.28211114 0.31514648 -0.057618793 -0.021125307 0.10640884 0.2633753 0.2182829 0.18637326
0.39020428 0.41180903 -0.2392438 -0.08725767 0.37119842 0.26125827 0.4509104 0.23678106
-0.09295894 -0.22085588 0.3944824 0.05582103 0.050893188 0.22366038 0.086189695 -0.44150415
0.20643376 -0.28167 -0.062021255 -0.14817636 0.38806754 0.110253446 -0.09188268 0.16082299
-0.043499812 -0.49651706 0.2881141 -0.049341712 0.25332364 -0.17235231 0.0909476 -0.18440036
0.03552569 -0.40533742 -0.37053996 0.11601046 0.086236514 -0.14457633 0.2820712 0.03603983

critic.2.weight f4 [1, 64]
00000000: a63f c53d 5262 6639 c0f0 15bd 50e4 f53a
00000010: fe95 4dbd 3302 a0ba 1029 1d3d fb42 38bd
00000020: 464b 19be 363d a3b9 0104 a4bc 49c3 cb3c
00000030: ba6a bebd 6d2c 033c 83cc 1eba eb00 583a
00000040: a08c e638 cc5e a8bd 31cb a438 744a 1d3d
00000050: e273 86b9 f2b4 1c39 71c3 5aba 28be bcbd
00000060: a33d b0bd 1f17 283d b63d f6bd 2960 b33d
00000070: 6ffe 11bd 9ca9 a03b 6888 973d 0e55 fa3d
00000080: 0a21 223d f5c3 073d e994 a2bd 86ab d23d
00000090: d599 4538 bf71 c9bc fbbc 8036 7053 93bd
000000a0: 1439 043d 1cb4 243d 1057 773d aed6 e93d
000000b0: c31d 993c 3620 e03d 243a 15ba 282c 363d
000000c0: f7cc c0bc b445 323d 3ab0 cfbc 8eeb 0fbe
000000d0: f76d 223d 8e35 d53d d2f9 33bd 566a 6ebd
000000e0: 049e c0bd 876e 023b af09 3abd a186 5cbd
000000f0: d77a c0bd bdce 7d36 360a d63d 502f 8fbd
0.096312806 0.00021971136 -0.03660655 0.0018760059 -0.05019187 -0.0012207687 0.03836924 -0.044985753
-0.14970121 -0.00031135388 -0.02002144 0.024873393 -0.092977 0.008006197 -0.00060576963 0.0008239883
0.00010993448 -0.08221206 7.857977e-05 0.038401082 -0.0002564481 0.00014944727 -0.0008345163 -0.09215957
-0.08605506 0.041037675 -0.12023489 0.087585755 -0.035643037 0.0049030315 0.07399064 0.12223254
0.03958229 0.033145864 -0.079385586 0.10286622 4.7111727e-05 -0.024590371 3.8366975e-06 -0.07193649
0.032280996 0.04021083 0.060385764 0.114179 0.01869095 0.10943644 -0.00056925626 0.044475704
-0.023535235 0.043523505 -0.025352586 -0.140547 0.039655652 0.10410605 -0.04393942 -0.05820688
-0.09405139 0.0019902305 -0.04541939 -0.05383933 -0.0939843 3.7820275e-06 0.10451166 -0.06991446
